…
an see the shape pf house clearly)</li>\n<li>&alpha; / &Beta; = 1/10000 ---> less content + more style (we loose the shape of house)</li>\n</ul>\n<p>The more small &alpha; / &Beta; ratio the more style you see!</p>\n<h2>Coding Tips</h2>\n<ul>\n<li>Load VGG features, not classification part</li>\n</ul>\n<p>vgg = models.vgg19(pretrained=True).features</p>\n<ul>\n<li>Freeze all VGG parameters since we're only optimizing the target image</li>\n</ul>\n<p>for param in vgg.parameters():</p>\n<p>param.requires<em>grad</em>(False)</p>\n<ul>\n<li>Features of Vgg19:</li>\n</ul>\n<p>Sequential(</p>\n<p>(0): Conv2d(3, 64, kernel_size=(3, 3), stride=(1, 1), padding=(1, 1))</p>\n<p>(1): ReLU(inplace=True)</p>\n<p>(2): Conv2d(64, 64, kernel_size=(3, 3), stride=(1, 1), padding=(1, 1))</p>\n<p>(3): ReLU(inplace=True)</p>\n<p>(4): MaxPool2d(kernel<em>size=2, stride=2, padding=0, dilation=1, ceil</em>mode=False)</p>\n<p>(5): Conv2d(64, 128, kernel_size=(3, 3), stride=(1, 1), padding=(1, 1))</p>\n<p>(6): ReLU(inplace=True)</p>\n<p>(7): Conv2d(128, 128, kernel_size=(3, 3), stride=(1, 1), padding=(1, 1))</p>\n<p>(8): ReLU(inplace=True)</p>\n<p>(9): MaxPool2d(kernel<em>size=2, stride=2, padding=0, dilation=1, ceil</em>mode=False)</p>\n<p>(10): Conv2d(128, 256, kernel_size=(3, 3), stride=(1, 1), padding=(1, 1))</p>\n<p>(11): ReLU(inplace=True)</p>\n<p>(12): Conv2d(256, 256, kernel_size=(3, 3), stride=(1, 1), padding=(1, 1))</p>\n<p>(13): ReLU(inplace=True)</p>\n<p>(14): Conv2d(256, 256, kernel_size=(3, 3), stride=(1, 1), padding=(1, 1))</p>\n<p>(15): ReLU(inplace=True)</p>\n<p>(16): Conv2d(256, 256, kernel_size=(3, 3), stride=(1, 1), padding=(1, 1))</p>\n<p>(17): ReLU(inplace=True)</p>\n<p>(18): MaxPool2d(kernel<em>size=2, stride=2, padding=0, dilation=1, ceil</em>mode=False)</p>\n<p>(19): Conv2d(256, 512, kernel_size=(3, 3), stride=(1, 1), padding=(1, 1))</p>\n<p>(20): ReLU(inplace=True)</p>\n<p>(21): Conv2d(512, 512, kernel_size=(3, 3), stride=(1, 1), padding=(1, 1))</p>\n<p>(22): ReLU(inplace=True)</p>\n<p>(23): Conv2d(512, 512, kernel_size=(3, 3), stride=(1, 1), padding=(1, 1))</p>\n<p>(24): ReLU(inplace=True)</p>\n<p>(25): Conv2d(512, 512, kernel_size=(3, 3), stride=(1, 1), padding=(1, 1))</p>\n<p>(26): ReLU(inplace=True)</p>\n<p>(27): MaxPool2d(kernel<em>size=2, stride=2, padding=0, dilation=1, ceil</em>mode=False)</p>\n<p>(28): Conv2d(512, 512, kernel_size=(3, 3), stride=(1, 1), padding=(1, 1))</p>\n<p>(29): ReLU(inplace=True)</p>\n<p>(30): Conv2d(512, 512, kernel_size=(3, 3), stride=(1, 1), padding=(1, 1))</p>\n<p>(31): ReLU(inplace=True)</p>\n<p>(32): Conv2d(512, 512, kernel_size=(3, 3), stride=(1, 1), padding=(1, 1))</p>\n<p>(33): ReLU(inplace=True)</p>\n<p>(34): Conv2d(512, 512, kernel_size=(3, 3), stride=(1, 1), padding=(1, 1))</p>\n<p>(35): ReLU(inplace=True)</p>\n<p>(36): MaxPool2d(kernel<em>size=2, stride=2, padding=0, dilation=1, ceil</em>mode=False)</p>\n<p>)</p>\n<ul>\n<li>Classifier of Vgg19:</li>\n</ul>\n<p>Sequential(</p>\n<p>(0): Linear(in<em>features=25088, out</em>features=4096, bias=True)</p>\n<p>(1): ReLU(inplace=True)</p>\n<p>(2): Dropout(p=0.5, inplace=False)</p>\n<p>(3): Linear(in<em>features=4096, out</em>features=4096, bias=True)</p>\n<p>(4): ReLU(inplace=True)</p>\n<p>(5): Dropout(p=0.5, inplace=False)</p>\n<p>(6): Linear(in<em>features=4096, out</em>features=1000, bias=True)</p>\n<p>)</p>\n<ul>\n<li>How to use cuda?</li>\n</ul>\n<p>device = torch.device(\"cuda\" if torch.cuda.is_available() else \"cpu\")</p>\n<p>vgg.to(device)</p>\n<ul>\n<li>Load image with image path</li>\n</ul>\n<p>image = Image.open(img_path).convert('RGB')</p>\n<ul>\n<li>Use tranformation to resize normalize and turn to tensor:</li>\n</ul>\n<p
…
