…
i>&alpha; / &Beta; = 1/10000 ---&gt; less content + more style (we loose the shape of house)</li>\n</ul>\n<p>The more small &alpha; / &Beta; ratio the more style you see!</p>\n<h2>Coding Tips</h2>\n<ul>\n<li>\n<p>Load VGG features, not classification part</p>\n<pre><code>vgg = models.vgg19(pretrained=True).features\n</code></pre>\n</li>\n<li>\n<p>Freeze all VGG parameters since we're only optimizing the target image</p>\n<pre><code>for param in vgg.parameters():\n    param.requires_grad_(False)\n</code></pre>\n</li>\n<li>\n<p>Features of Vgg19:</p>\n<pre><code>Sequential(\n</code></pre>\n<p>(0): Conv2d(3, 64, kernel_size=(3, 3), stride=(1, 1), padding=(1, 1))\n  (1): ReLU(inplace=True)\n  (2): Conv2d(64, 64, kernel_size=(3, 3), stride=(1, 1), padding=(1, 1))\n  (3): ReLU(inplace=True)\n  (4): MaxPool2d(kernel_size=2, stride=2, padding=0, dilation=1, ceil_mode=False)\n  (5): Conv2d(64, 128, kernel_size=(3, 3), stride=(1, 1), padding=(1, 1))\n  (6): ReLU(inplace=True)\n  (7): Conv2d(128, 128, kernel_size=(3, 3), stride=(1, 1), padding=(1, 1))\n  (8): ReLU(inplace=True)\n  (9): MaxPool2d(kernel_size=2, stride=2, padding=0, dilation=1, ceil_mode=False)\n  (10): Conv2d(128, 256, kernel_size=(3, 3), stride=(1, 1), padding=(1, 1))\n  (11): ReLU(inplace=True)\n  (12): Conv2d(256, 256, kernel_size=(3, 3), stride=(1, 1), padding=(1, 1))\n  (13): ReLU(inplace=True)\n  (14): Conv2d(256, 256, kernel_size=(3, 3), stride=(1, 1), padding=(1, 1))\n  (15): ReLU(inplace=True)\n  (16): Conv2d(256, 256, kernel_size=(3, 3), stride=(1, 1), padding=(1, 1))\n  (17): ReLU(inplace=True)\n  (18): MaxPool2d(kernel_size=2, stride=2, padding=0, dilation=1, ceil_mode=False)\n  (19): Conv2d(256, 512, kernel_size=(3, 3), stride=(1, 1), padding=(1, 1))\n  (20): ReLU(inplace=True)\n  (21): Conv2d(512, 512, kernel_size=(3, 3), stride=(1, 1), padding=(1, 1))\n  (22): ReLU(inplace=True)\n  (23): Conv2d(512, 512, kernel_size=(3, 3), stride=(1, 1), padding=(1, 1))\n  (24): ReLU(inplace=True)\n  (25): Conv2d(512, 512, kernel_size=(3, 3), stride=(1, 1), padding=(1, 1))\n  (26): ReLU(inplace=True)\n  (27): MaxPool2d(kernel_size=2, stride=2, padding=0, dilation=1, ceil_mode=False)\n  (28): Conv2d(512, 512, kernel_size=(3, 3), stride=(1, 1), padding=(1, 1))\n  (29): ReLU(inplace=True)\n  (30): Conv2d(512, 512, kernel_size=(3, 3), stride=(1, 1), padding=(1, 1))\n  (31): ReLU(inplace=True)\n  (32): Conv2d(512, 512, kernel_size=(3, 3), stride=(1, 1), padding=(1, 1))\n  (33): ReLU(inplace=True)\n  (34): Conv2d(512, 512, kernel_size=(3, 3), stride=(1, 1), padding=(1, 1))\n  (35): ReLU(inplace=True)\n  (36): MaxPool2d(kernel_size=2, stride=2, padding=0, dilation=1, ceil_mode=False)\n)</p>\n</li>\n<li>\n<p>Classifier of Vgg19:</p>\n<pre><code>    Sequential(\n</code></pre>\n<p>(0): Linear(in_features=25088, out_features=4096, bias=True)\n  (1): ReLU(inplace=True)\n  (2): Dropout(p=0.5, inplace=False)\n  (3): Linear(in_features=4096, out_features=4096, bias=True)\n  (4): ReLU(inplace=True)\n  (5): Dropout(p=0.5, inplace=False)\n  (6): Linear(in_features=4096, out_features=1000, bias=True)\n)</p>\n</li>\n<li>\n<p>How to use cuda?</p>\n<pre><code>device = torch.device(\"cuda\" if torch.cuda.is_available() else \"cpu\")\nvgg.to(device)\n</code></pre>\n</li>\n<li>\n<p>Load image with image path</p>\n<pre><code>image = Image.open(img_path).convert('RGB')\n</code></pre>\n</li>\n<li>\n<p>Use tranformation to resize normalize and turn to tens
…
